…
02/09/2020 04:17:15 PM Batch size: 32
02/09/2020 04:17:15 PM LR: 0.0003
02/09/2020 04:17:15 PM Optimizer: <class 'torch.optim.adam.Adam'>
02/09/2020 04:17:15 PM Weights: [0.5 | 0.25 | 0.25]
02/09/2020 04:17:15 PM Activation: None
02/09/2020 04:17:15 PM Mixup: False
02/09/2020 04:17:15 PM Cutmix: False
02/09/2020 04:17:15 PM Train dataset: <loaddata.BengaliAI object at 0x7f1f7e79c320>
02/09/2020 04:17:15 PM Validation dataset: <loaddata.BengaliAI object at 0x7f1f7e79c0f0>
02/09/2020 04:17:15 PM Continue: False
02/09/2020 04:17:15 PM Model: ClassifierCNN(
  (first): RGB()
  (model): SENet(
    (layer0): Sequential(
      (conv1): Conv2d(3, 64, kernel_size=(7, 7), stride=(2, 2), padding=(3, 3), bias=False)
      (bn1): BatchNorm2d(64, eps=1e-05, momentum=0.1, affine=True, track_running_stats=True)
      (relu1): ReLU(inplace=True)
      (pool): MaxPool2d(kernel_size=3, stride=2, padding=0, dilation=1, ceil_mode=True)
    )
    (layer1): Sequential(
      (0): SEResNeXtBottleneck(
        (conv1): Conv2d(64, 128, kernel_size=(1, 1), stride=(1, 1), bias=False)
        (bn1): BatchNorm2d(128, eps=1e-05, momentum=0.1, affine=True, track_running_stats=True)
        (conv2): Conv2d(128, 128, kernel_size=(3, 3), stride=(1, 1), padding=(1, 1), groups=32, bias=False)
        (bn2): BatchNorm2d(128, eps=1e-05, momentum=0.1, affine=True, track_running_stats=True)
        (conv3): Conv2d(128, 256, kernel_size=(1, 1), stride=(1, 1), bias=False)
        (bn3): BatchNorm2d(256, eps=1e-05, momentum=0.1, affine=True, track_running_stats=True)
        (relu): ReLU(inplace=True)
        (se_module): SEModule(
          (avg_pool): AdaptiveAvgPool2d(output_size=1)
          (fc1): Conv2d(256, 16, kernel_size=(1, 1), stride=(1, 1))
          (relu): ReLU(inplace=True)
          (fc2): Conv2d(16, 256, kernel_size=(1, 1), stride=(1, 1))
          (sigmoid): Sigmoid()
        )
        (downsample): Sequential(
          (0): Conv2d(64, 256, kernel_size=(1, 1), stride=(1, 1), bias=False)
          (1): BatchNorm2d(256, eps=1e-05, momentum=0.1, affine=True, track_running_stats=True)
        )
      )
      (1): SEResNeXtBottleneck(
        (conv1): Conv2d(256, 128, kernel_size=(1, 1), stride=(1, 1), bias=False)
        (bn1): BatchNorm2d(128, eps=1e-05, momentum=0.1, affine=True, track_running_stats=True)
        (conv2): Conv2d(128, 128, kernel_size=(3, 3), stride=(1, 1), padding=(1, 1), groups=32, bias=False)
        (bn2): BatchNorm2d(128, eps=1e-05, momentum=0.1, affine=True, track_running_stats=True)
        (conv3): Conv2d(128, 256, kernel_size=(1, 1), stride=(1, 1), bias=False)
        (bn3): BatchNorm2d(256, eps=1e-05, momentum=0.1, affine=True, track_running_stats=True)
        (relu): ReLU(inplace=True)
        (se_module): SEModule(
          (avg_pool): AdaptiveAvgPool2d(output_size=1)
          (fc1): Conv2d(256, 16, kernel_size=(1, 1), stride=(1, 1))
          (relu): ReLU(inplace=True)
          (fc2): Conv2d(16, 256, kernel_size=(1, 1), stride=(1, 1))
          (sigmoid): Sigmoid()
        )
      )
      (2): SEResNeXtBottleneck(
        (conv1): Conv2d(256, 128, kernel_size=(1, 1), stride=(1, 1), bias=False)
        (bn1): BatchNorm2d(128, eps=1e-05, momentum=0.1, affine=True, track_running_stats=True)
        (conv2): Conv2d(128, 128, kernel_size=(3, 3), stride=(1, 1), padding=(1, 1), groups=32, bias=False)
        (bn2): BatchNorm2d(128, eps=1e-05, momentum=0.1, affine=True, track_running_stats=True)
        (conv3): Conv2d(128, 256, kernel_size=(1, 1), stride=(1, 1), bias=False)
        (bn3): BatchNorm2d(256, eps=1e-05, momentum=0.1, affine=True, track_running_stats=True)
        (relu): ReLU(inplace=True)
        (se_module): SEModule(
          (avg_pool): AdaptiveAvgPool2d(output_size=1)
          (fc1): Conv2d(256, 16, kernel_size=(1, 1), stride=(1, 1))
          (relu): ReLU(inplace=True)
          (fc2): Conv2d(16, 256, kernel_size=(1, 1), stride=(1, 1))
          (sigmoid): Sigmoid()
        )
      )
    )
    (layer2): Sequential(
      (0): SEResNeXtBottleneck(
        (conv1): Conv2d(256, 256, kernel_size=(1, 1), stride=(1, 1), bias=False)
        (bn1): BatchNorm2d(256, eps=1e-05, momentum=0.1, affine=True, track_running_stats=True)
        (conv2): Conv2d(256, 256, kernel_size=(3, 3), stride=(2, 2), padding=(1, 1), groups=32, bias=False)
        (bn2): BatchNorm2d(256, eps=1e-05, momentum=0.1, affine=True, track_running_stats=True)
        (conv3): Conv2d(256, 512, kernel_size=(1, 1), stride=(1, 1), bias=False)
        (bn3): BatchNorm2d(512, eps=1e-05, momentum=0.1, affine=True, track_running_stats=True)
        (relu): ReLU(inplace=True)
        (se_module): SEModule(
          (avg_pool): AdaptiveAvgPool2d(output_size=1)
          (fc1): Conv2d(512, 32, kernel_size=(1, 1), stride=(1, 1))
          (relu): ReLU(inplace=True)
          (fc2): Conv2d(32, 512, kernel_size=(1, 1), stride=(1, 1))
          (sigmoid): Sigmoid()
        )
        (downsample): Sequential(
          (0): Conv2d(256, 512, kernel_size=(1, 1), stride=(2, 2), bias=False)
          (1): BatchNorm2d(512, eps=1e-05, momentum=0.1, affine=True, track_running_stats=True)
        )
      )
      (1): SEResNeXtBottleneck(
        (conv1): Conv2d(512, 256, kernel_size=(1, 1), stride=(1, 1), bias=False)
        (bn1): BatchNorm2d(256, eps=1e-05, momentum=0.1, affine=True, track_running_stats=True)
        (conv2): Conv2d(256, 256, kernel_size=(3, 3), stride=(1, 1), padding=(1, 1), groups=32, bias=False)
        (bn2): BatchNorm2d(256, eps=1e-05, momentum=0.1, affine=True, track_running_stats=True)
        (conv3): Conv2d(256, 512, kernel_size=(1, 1), stride=(1, 1), bias=False)
        (bn3): BatchNorm2d(512, eps=1e-05, momentum=0.1, affine=True, track_running_stats=True)
        (relu): ReLU(inplace=True)
        (se_module): SEModule(
          (avg_pool): AdaptiveAvgPool2d(output_size=1)
          (fc1): Conv2d(512, 32, kernel_size=(1, 1), stride=(1, 1))
          (relu): ReLU(inplace=True)
          (fc2): Conv2d(32, 512, kernel_size=(1, 1), stride=(1, 1))
          (sigmoid): Sigmoid()
        )
      )
      (2): SEResNeXtBottleneck(
        (conv1): Conv2d(512, 256, kernel_size=(1, 1), stride=(1, 1), bias=False)
        (bn1): BatchNorm2d(256, eps=1e-05, momentum=0.1, affine=True, track_running_stats=True)
        (conv2): Conv2d(256, 256, kernel_size=(3, 3), stride=(1, 1), padding=(1, 1), groups=32, bias=False)
        (bn2): BatchNorm2d(256, eps=1e-05, momentum=0.1, affine=True, track_running_stats=True)
        (conv3): Conv2d(256, 512, kernel_size=(1, 1), stride=(1, 1), bias=False)
        (bn3): BatchNorm2d(512, eps=1e-05, momentum=0.1, affine=True, track_running_stats=True)
        (relu): ReLU(inplace=True)
        (se_module): SEModule(
          (avg_pool): AdaptiveAvgPool2d(output_size=1)
          (fc1): Conv2d(512, 32, kernel_size=(1, 1), stride=(1, 1))
          (relu): ReLU(inplace=True)
          (fc2): Conv2d(32, 512, kernel_size=(1, 1), stride=(1, 1))
          (sigmoid): Sigmoid()
        )
      )
      (3): SEResNeXtBottleneck(
        (conv1): Conv2d(512, 256, kernel_size=(1, 1), stride=(1, 1), bias=False)
        (bn1): BatchNorm2d(256, eps=1e-05, momentum=0.1, affine=True, track_running_stats=True)
        (conv2): Conv2d(256, 256, kernel_size=(3, 3), stride=(1, 1), padding=(1, 1), groups=32, bias=False)
        (bn2): BatchNorm2d(256, eps=1e-05, momentum=0.1, affine=True, track_running_stats=True)
        (conv3): Conv2d(256, 512, kernel_size=(1, 1), stride=(1, 1), bias=False)
        (bn3): BatchNorm2d(512, eps=1e-05, momentum=0.1, affine=True, track_running_stats=True)
        (relu): ReLU(inplace=True)
        (se_module): SEModule(
          (avg_pool): AdaptiveAvgPool2d(output_size=1)
          (fc1): Conv2d(512, 32, kernel_size=(1, 1), stride=(1, 1))
          (relu): ReLU(inplace=True)
          (fc2): Conv2d(32, 512, kernel_size=(1, 1), stride=(1, 1))
          (sigmoid): Sigmoid()
        )
      )
    )
    (layer3): Sequential(
      (0): SEResNeXtBottleneck(
        (conv1): Conv2d(512, 512, kernel_size=(1, 1), stride=(1, 1), bias=False)
        (bn1): BatchNorm2d(512, eps=1e-05, momentum=0.1, affine=True, track_running_stats=True)
        (conv2): Conv2d(512, 512, kernel_size=(3, 3), stride=(2, 2), padding=(1, 1), groups=32, bias=False)
        (bn2): BatchNorm2d(512, eps=1e-05, momentum=0.1, affine=True, track_running_stats=True)
        (conv3): Conv2d(512, 1024, kernel_size=(1, 1), stride=(1, 1), bias=False)
        (bn3): BatchNorm2d(1024, eps=1e-05, momentum=0.1, affine=True, track_running_stats=True)
        (relu): ReLU(inplace=True)
        (se_module): SEModule(
          (avg_pool): AdaptiveAvgPool2d(output_size=1)
          (fc1): Conv2d(1024, 64, kernel_size=(1, 1), stride=(1, 1))
          (relu): ReLU(inplace=True)
          (fc2): Conv2d(64, 1024, kernel_size=(1, 1), stride=(1, 1))
          (sigmoid): Sigmoid()
        )
        (downsample): Sequential(
          (0): Conv2d(512, 1024, kernel_size=(1, 1), stride=(2, 2), bias=False)
          (1): BatchNorm2d(1024, eps=1e-05, momentum=0.1, affine=True, track_running_stats=True)
        )
      )
      (1): SEResNeXtBottleneck(
        (conv1): Conv2d(1024, 512, kernel_size=(1, 1), stride=(1, 1), bias=False)
        (bn1): BatchNorm2d(512, eps=1e-05, momentum=0.1, affine=True, track_running_stats=True)
        (conv2): Conv2d(512, 512, kernel_size=(3, 3), stride=(1, 1), padding=(1, 1), groups=32, bias=False)
        (bn2): BatchNorm2d(512, eps=1e-05, momentum=0.1, affine=True, track_running_stats=True)
        (conv3): Conv2d(512, 1024, kernel_size=(1, 1), stride=(1, 1), bias=False)
        (bn3): BatchNorm2d(1024, eps=1e-05, momentum=0.1, affine=True, track_running_stats=True)
        (relu): ReLU(inplace=True)
        (se_module): SEModule(
          (avg_pool): AdaptiveAvgPool2d(output_size=1)
          (fc1): Conv2d(1024, 64, kernel_size=(1, 1), stride=(1, 1))
          (relu): ReLU(inplace=True)
          (fc2): Conv2d(64, 1024, kernel_size=(1, 1), stride=(1, 1))
          (sigmoid): Sigmoid()
        )
      )
      (2): SEResNeXtBottleneck(
        (conv1): Conv2d(1024, 512, kernel_size=(1, 1), stride=(1, 1), bias=False)
        (bn1): BatchNorm2d(512, eps=1e-05, momentum=0.1, affine=True, track_running_stats=True)
        (conv2): Conv2d(512, 512, kernel_size=(3, 3), stride=(1, 1), padding=(1, 1), groups=32, bias=False)
        (bn2): BatchNorm2d(512, eps=1e-05, momentum=0.1, affine=True, track_running_stats=True)
        (conv3): Conv2d(512, 1024, kernel_size=(1, 1), stride=(1, 1), bias=False)
        (bn3): BatchNorm2d(1024, eps=1e-05, momentum=0.1, affine=True, track_running_stats=True)
        (relu): ReLU(inplace=True)
        (se_module): SEModule(
          (avg_pool): AdaptiveAvgPool2d(output_size=1)
          (fc1): Conv2d(1024, 64, kernel_size=(1, 1), stride=(1, 1))
          (relu): ReLU(inplace=True)
          (fc2): Conv2d(64, 1024, kernel_size=(1, 1), stride=(1, 1))
          (sigmoid): Sigmoid()
        )
      )
      (3): SEResNeXtBottleneck(
        (conv1): Conv2d(1024, 512, kernel_size=(1, 1), stride=(1, 1), bias=False)
        (bn1): BatchNorm2d(512, eps=1e-05, momentum=0.1, affine=True, track_running_stats=True)
        (conv2): Conv2d(512, 512, kernel_size=(3, 3), stride=(1, 1), padding=(1, 1), groups=32, bias=False)
        (bn2): BatchNorm2d(512, eps=1e-05, momentum=0.1, affine=True, track_running_stats=True)
        (conv3): Conv2d(512, 1024, kernel_size=(1, 1), stride=(1, 1), bias=False)
        (bn3): BatchNorm2d(1024, eps=1e-05, momentum=0.1, affine=True, track_running_stats=True)
        (relu): ReLU(inplace=True)
        (se_module): SEModule(
          (avg_pool): AdaptiveAvgPool2d(output_size=1)
          (fc1): Conv2d(1024, 64, kernel_size=(1, 1), stride=(1, 1))
          (relu): ReLU(inplace=True)
          (fc2): Conv2d(64, 1024, kernel_size=(1, 1), stride=(1, 1))
          (sigmoid): Sigmoid()
        )
      )
      (4): SEResNeXtBottleneck(
        (conv1): Conv2d(1024, 512, kernel_size=(1, 1), stride=(1, 1), bias=False)
        (bn1): BatchNorm2d(512, eps=1e-05, momentum=0.1, affine=True, track_running_stats=True)
        (conv2): Conv2d(512, 512, kernel_size=(3, 3), stride=(1, 1), padding=(1, 1), groups=32, bias=False)
        (bn2): BatchNorm2d(512, eps=1e-05, momentum=0.1, affine=True, track_running_stats=True)
        (conv3): Conv2d(512, 1024, kernel_size=(1, 1), stride=(1, 1), bias=False)
        (bn3): BatchNorm2d(1024, eps=1e-05, momentum=0.1, affine=True, track_running_stats=True)
        (relu): ReLU(inplace=True)
        (se_module): SEModule(
          (avg_pool): AdaptiveAvgPool2d(output_size=1)
          (fc1): Conv2d(1024, 64, kernel_size=(1, 1), stride=(1, 1))
          (relu): ReLU(inplace=True)
          (fc2): Conv2d(64, 1024, kernel_size=(1, 1), stride=(1, 1))
          (sigmoid): Sigmoid()
        )
      )
      (5): SEResNeXtBottleneck(
        (conv1): Conv2d(1024, 512, kernel_size=(1, 1), stride=(1, 1), bias=False)
        (bn1): BatchNorm2d(512, eps=1e-05, momentum=0.1, affine=True, track_running_stats=True)
        (conv2): Conv2d(512, 512, kernel_size=(3, 3), stride=(1, 1), padding=(1, 1), groups=32, bias=False)
        (bn2): BatchNorm2d(512, eps=1e-05, momentum=0.1, affine=True, track_running_stats=True)
        (conv3): Conv2d(512, 1024, kernel_size=(1, 1), stride=(1, 1), bias=False)
        (bn3): BatchNorm2d(1024, eps=1e-05, momentum=0.1, affine=True, track_running_stats=True)
        (relu): ReLU(inplace=True)
        (se_module): SEModule(
          (avg_pool): AdaptiveAvgPool2d(output_size=1)
          (fc1): Conv2d(1024, 64, kernel_size=(1, 1), stride=(1, 1))
          (relu): ReLU(inplace=True)
          (fc2): Conv2d(64, 1024, kernel_size=(1, 1), stride=(1, 1))
          (sigmoid): Sigmoid()
        )
      )
    )
    (layer4): Sequential(
      (0): SEResNeXtBottleneck(
        (conv1): Conv2d(1024, 1024, kernel_size=(1, 1), stride=(1, 1), bias=False)
        (bn1): BatchNorm2d(1024, eps=1e-05, momentum=0.1, affine=True, track_running_stats=True)
        (conv2): Conv2d(1024, 1024, kernel_size=(3, 3), stride=(2, 2), padding=(1, 1), groups=32, bias=False)
        (bn2): BatchNorm2d(1024, eps=1e-05, momentum=0.1, affine=True, track_running_stats=True)
        (conv3): Conv2d(1024, 2048, kernel_size=(1, 1), stride=(1, 1), bias=False)
        (bn3): BatchNorm2d(2048, eps=1e-05, momentum=0.1, affine=True, track_running_stats=True)
        (relu): ReLU(inplace=True)
        (se_module): SEModule(
          (avg_pool): AdaptiveAvgPool2d(output_size=1)
          (fc1): Conv2d(2048, 128, kernel_size=(1, 1), stride=(1, 1))
          (relu): ReLU(inplace=True)
          (fc2): Conv2d(128, 2048, kernel_size=(1, 1), stride=(1, 1))
          (sigmoid): Sigmoid()
        )
        (downsample): Sequential(
          (0): Conv2d(1024, 2048, kernel_size=(1, 1), stride=(2, 2), bias=False)
          (1): BatchNorm2d(2048, eps=1e-05, momentum=0.1, affine=True, track_running_stats=True)
        )
      )
      (1): SEResNeXtBottleneck(
        (conv1): Conv2d(2048, 1024, kernel_size=(1, 1), stride=(1, 1), bias=False)
        (bn1): BatchNorm2d(1024, eps=1e-05, momentum=0.1, affine=True, track_running_stats=True)
        (conv2): Conv2d(1024, 1024, kernel_size=(3, 3), stride=(1, 1), padding=(1, 1), groups=32, bias=False)
        (bn2): BatchNorm2d(1024, eps=1e-05, momentum=0.1, affine=True, track_running_stats=True)
        (conv3): Conv2d(1024, 2048, kernel_size=(1, 1), stride=(1, 1), bias=False)
        (bn3): BatchNorm2d(2048, eps=1e-05, momentum=0.1, affine=True, track_running_stats=True)
        (relu): ReLU(inplace=True)
        (se_module): SEModule(
          (avg_pool): AdaptiveAvgPool2d(output_size=1)
          (fc1): Conv2d(2048, 128, kernel_size=(1, 1), stride=(1, 1))
          (relu): ReLU(inplace=True)
          (fc2): Conv2d(128, 2048, kernel_size=(1, 1), stride=(1, 1))
          (sigmoid): Sigmoid()
        )
      )
      (2): SEResNeXtBottleneck(
        (conv1): Conv2d(2048, 1024, kernel_size=(1, 1), stride=(1, 1), bias=False)
        (bn1): BatchNorm2d(1024, eps=1e-05, momentum=0.1, affine=True, track_running_stats=True)
        (conv2): Conv2d(1024, 1024, kernel_size=(3, 3), stride=(1, 1), padding=(1, 1), groups=32, bias=False)
        (bn2): BatchNorm2d(1024, eps=1e-05, momentum=0.1, affine=True, track_running_stats=True)
        (conv3): Conv2d(1024, 2048, kernel_size=(1, 1), stride=(1, 1), bias=False)
        (bn3): BatchNorm2d(2048, eps=1e-05, momentum=0.1, affine=True, track_running_stats=True)
        (relu): ReLU(inplace=True)
        (se_module): SEModule(
          (avg_pool): AdaptiveAvgPool2d(output_size=1)
          (fc1): Conv2d(2048, 128, kernel_size=(1, 1), stride=(1, 1))
          (relu): ReLU(inplace=True)
          (fc2): Conv2d(128, 2048, kernel_size=(1, 1), stride=(1, 1))
          (sigmoid): Sigmoid()
        )
      )
    )
    (avg_pool): AvgPool2d(kernel_size=7, stride=1, padding=0)
    (last_linear): Linear(in_features=2048, out_features=1000, bias=True)
  )
  (head_grapheme_root): AdaptiveHead(
    (mish): Mish()
    (fc1): Conv2d(2048, 1024, kernel_size=(4, 4), stride=(1, 1))
    (bn): BatchNorm2d(1024, eps=1e-05, momentum=0.1, affine=True, track_running_stats=True)
    (pool): GeM(p=3.0000, eps=1e-06)
    (dropout): Dropout2d(p=0.7, inplace=False)
    (l1): Linear(in_features=1024, out_features=168, bias=True)
  )
  (head_vowel_diacritic): AdaptiveHead(
    (mish): Mish()
    (fc1): Conv2d(2048, 1024, kernel_size=(4, 4), stride=(1, 1))
    (bn): BatchNorm2d(1024, eps=1e-05, momentum=0.1, affine=True, track_running_stats=True)
    (pool): GeM(p=3.0000, eps=1e-06)
    (dropout): Dropout2d(p=0.0, inplace=False)
    (l1): Linear(in_features=1024, out_features=11, bias=True)
  )
  (head_consonant_diacritic): AdaptiveHead(
    (mish): Mish()
    (fc1): Conv2d(2048, 1024, kernel_size=(4, 4), stride=(1, 1))
    (bn): BatchNorm2d(1024, eps=1e-05, momentum=0.1, affine=True, track_running_stats=True)
    (pool): GeM(p=3.0000, eps=1e-06)
    (dropout): Dropout2d(p=0.0, inplace=False)
    (l1): Linear(in_features=1024, out_features=7, bias=True)
  )
)
02/09/2020 04:17:15 PM ------------------------------------------------------------
02/09/2020 04:17:15 PM Starting training...
02/09/2020 04:17:15 PM Unfreezing model
02/09/2020 04:17:41 PM [1/70] | t_0 | R: 0.222 | [0.014 | 0.424 | 0.436] | A: [3.267% | 51.468% | 60.748%] | L: 3.164 | [4.995 | 1.475 | 1.192]
02/09/2020 04:17:43 PM [1/70] | v_0 | R: 0.350 | [0.029 | 0.598 | 0.745] | A: [7.152% | 70.605% | 82.921%] | L: 2.536 | [4.406 | 0.802 | 0.532]
…
