…
02/10/2020 12:20:54 PM Optimizer: <class 'torch.optim.sgd.SGD'>
02/10/2020 12:20:54 PM Scheduler: <class 'torch.optim.lr_scheduler.CyclicLR'>
02/10/2020 12:20:54 PM Weights: [0.5 | 0.25 | 0.25]
02/10/2020 12:20:54 PM Activation: mish
02/10/2020 12:20:54 PM Mixup: True
02/10/2020 12:20:54 PM Cutmix: False
02/10/2020 12:20:54 PM Train dataset: <loaddata.BengaliAI object at 0x7f122ea156a0>
02/10/2020 12:20:54 PM Validation dataset: <loaddata.BengaliAI object at 0x7f122ea158d0>
02/10/2020 12:20:54 PM Continue: False
02/10/2020 12:20:54 PM Model: ClassifierCNN(
  (first): RGB()
  (model): SENet(
    (layer0): Sequential(
      (conv1): Conv2d(3, 64, kernel_size=(7, 7), stride=(2, 2), padding=(3, 3), bias=False)
      (bn1): BatchNorm2d(64, eps=1e-05, momentum=0.1, affine=True, track_running_stats=True)
      (relu1): Mish()
      (pool): MaxPool2d(kernel_size=3, stride=2, padding=0, dilation=1, ceil_mode=True)
    )
    (layer1): Sequential(
      (0): SEResNeXtBottleneck(
        (conv1): Conv2d(64, 128, kernel_size=(1, 1), stride=(1, 1), bias=False)
        (bn1): BatchNorm2d(128, eps=1e-05, momentum=0.1, affine=True, track_running_stats=True)
        (conv2): Conv2d(128, 128, kernel_size=(3, 3), stride=(1, 1), padding=(1, 1), groups=32, bias=False)
        (bn2): BatchNorm2d(128, eps=1e-05, momentum=0.1, affine=True, track_running_stats=True)
        (conv3): Conv2d(128, 256, kernel_size=(1, 1), stride=(1, 1), bias=False)
        (bn3): BatchNorm2d(256, eps=1e-05, momentum=0.1, affine=True, track_running_stats=True)
        (relu): Mish()
        (se_module): SEModule(
          (avg_pool): AdaptiveAvgPool2d(output_size=1)
          (fc1): Conv2d(256, 16, kernel_size=(1, 1), stride=(1, 1))
          (relu): Mish()
          (fc2): Conv2d(16, 256, kernel_size=(1, 1), stride=(1, 1))
          (sigmoid): Sigmoid()
        )
        (downsample): Sequential(
          (0): Conv2d(64, 256, kernel_size=(1, 1), stride=(1, 1), bias=False)
          (1): BatchNorm2d(256, eps=1e-05, momentum=0.1, affine=True, track_running_stats=True)
        )
      )
      (1): SEResNeXtBottleneck(
        (conv1): Conv2d(256, 128, kernel_size=(1, 1), stride=(1, 1), bias=False)
        (bn1): BatchNorm2d(128, eps=1e-05, momentum=0.1, affine=True, track_running_stats=True)
        (conv2): Conv2d(128, 128, kernel_size=(3, 3), stride=(1, 1), padding=(1, 1), groups=32, bias=False)
        (bn2): BatchNorm2d(128, eps=1e-05, momentum=0.1, affine=True, track_running_stats=True)
        (conv3): Conv2d(128, 256, kernel_size=(1, 1), stride=(1, 1), bias=False)
        (bn3): BatchNorm2d(256, eps=1e-05, momentum=0.1, affine=True, track_running_stats=True)
        (relu): Mish()
        (se_module): SEModule(
          (avg_pool): AdaptiveAvgPool2d(output_size=1)
          (fc1): Conv2d(256, 16, kernel_size=(1, 1), stride=(1, 1))
          (relu): Mish()
          (fc2): Conv2d(16, 256, kernel_size=(1, 1), stride=(1, 1))
          (sigmoid): Sigmoid()
        )
      )
      (2): SEResNeXtBottleneck(
        (conv1): Conv2d(256, 128, kernel_size=(1, 1), stride=(1, 1), bias=False)
        (bn1): BatchNorm2d(128, eps=1e-05, momentum=0.1, affine=True, track_running_stats=True)
        (conv2): Conv2d(128, 128, kernel_size=(3, 3), stride=(1, 1), padding=(1, 1), groups=32, bias=False)
        (bn2): BatchNorm2d(128, eps=1e-05, momentum=0.1, affine=True, track_running_stats=True)
        (conv3): Conv2d(128, 256, kernel_size=(1, 1), stride=(1, 1), bias=False)
        (bn3): BatchNorm2d(256, eps=1e-05, momentum=0.1, affine=True, track_running_stats=True)
        (relu): Mish()
        (se_module): SEModule(
          (avg_pool): AdaptiveAvgPool2d(output_size=1)
          (fc1): Conv2d(256, 16, kernel_size=(1, 1), stride=(1, 1))
          (relu): Mish()
          (fc2): Conv2d(16, 256, kernel_size=(1, 1), stride=(1, 1))
          (sigmoid): Sigmoid()
        )
      )
    )
    (layer2): Sequential(
      (0): SEResNeXtBottleneck(
        (conv1): Conv2d(256, 256, kernel_size=(1, 1), stride=(1, 1), bias=False)
        (bn1): BatchNorm2d(256, eps=1e-05, momentum=0.1, affine=True, track_running_stats=True)
        (conv2): Conv2d(256, 256, kernel_size=(3, 3), stride=(2, 2), padding=(1, 1), groups=32, bias=False)
        (bn2): BatchNorm2d(256, eps=1e-05, momentum=0.1, affine=True, track_running_stats=True)
        (conv3): Conv2d(256, 512, kernel_size=(1, 1), stride=(1, 1), bias=False)
        (bn3): BatchNorm2d(512, eps=1e-05, momentum=0.1, affine=True, track_running_stats=True)
        (relu): Mish()
        (se_module): SEModule(
          (avg_pool): AdaptiveAvgPool2d(output_size=1)
          (fc1): Conv2d(512, 32, kernel_size=(1, 1), stride=(1, 1))
          (relu): Mish()
          (fc2): Conv2d(32, 512, kernel_size=(1, 1), stride=(1, 1))
          (sigmoid): Sigmoid()
        )
        (downsample): Sequential(
          (0): Conv2d(256, 512, kernel_size=(1, 1), stride=(2, 2), bias=False)
          (1): BatchNorm2d(512, eps=1e-05, momentum=0.1, affine=True, track_running_stats=True)
        )
      )
      (1): SEResNeXtBottleneck(
        (conv1): Conv2d(512, 256, kernel_size=(1, 1), stride=(1, 1), bias=False)
        (bn1): BatchNorm2d(256, eps=1e-05, momentum=0.1, affine=True, track_running_stats=True)
        (conv2): Conv2d(256, 256, kernel_size=(3, 3), stride=(1, 1), padding=(1, 1), groups=32, bias=False)
        (bn2): BatchNorm2d(256, eps=1e-05, momentum=0.1, affine=True, track_running_stats=True)
        (conv3): Conv2d(256, 512, kernel_size=(1, 1), stride=(1, 1), bias=False)
        (bn3): BatchNorm2d(512, eps=1e-05, momentum=0.1, affine=True, track_running_stats=True)
        (relu): Mish()
        (se_module): SEModule(
          (avg_pool): AdaptiveAvgPool2d(output_size=1)
          (fc1): Conv2d(512, 32, kernel_size=(1, 1), stride=(1, 1))
          (relu): Mish()
          (fc2): Conv2d(32, 512, kernel_size=(1, 1), stride=(1, 1))
          (sigmoid): Sigmoid()
        )
      )
      (2): SEResNeXtBottleneck(
        (conv1): Conv2d(512, 256, kernel_size=(1, 1), stride=(1, 1), bias=False)
        (bn1): BatchNorm2d(256, eps=1e-05, momentum=0.1, affine=True, track_running_stats=True)
        (conv2): Conv2d(256, 256, kernel_size=(3, 3), stride=(1, 1), padding=(1, 1), groups=32, bias=False)
        (bn2): BatchNorm2d(256, eps=1e-05, momentum=0.1, affine=True, track_running_stats=True)
        (conv3): Conv2d(256, 512, kernel_size=(1, 1), stride=(1, 1), bias=False)
        (bn3): BatchNorm2d(512, eps=1e-05, momentum=0.1, affine=True, track_running_stats=True)
        (relu): Mish()
        (se_module): SEModule(
          (avg_pool): AdaptiveAvgPool2d(output_size=1)
          (fc1): Conv2d(512, 32, kernel_size=(1, 1), stride=(1, 1))
          (relu): Mish()
          (fc2): Conv2d(32, 512, kernel_size=(1, 1), stride=(1, 1))
          (sigmoid): Sigmoid()
        )
      )
      (3): SEResNeXtBottleneck(
        (conv1): Conv2d(512, 256, kernel_size=(1, 1), stride=(1, 1), bias=False)
        (bn1): BatchNorm2d(256, eps=1e-05, momentum=0.1, affine=True, track_running_stats=True)
        (conv2): Conv2d(256, 256, kernel_size=(3, 3), stride=(1, 1), padding=(1, 1), groups=32, bias=False)
        (bn2): BatchNorm2d(256, eps=1e-05, momentum=0.1, affine=True, track_running_stats=True)
        (conv3): Conv2d(256, 512, kernel_size=(1, 1), stride=(1, 1), bias=False)
        (bn3): BatchNorm2d(512, eps=1e-05, momentum=0.1, affine=True, track_running_stats=True)
        (relu): Mish()
        (se_module): SEModule(
          (avg_pool): AdaptiveAvgPool2d(output_size=1)
          (fc1): Conv2d(512, 32, kernel_size=(1, 1), stride=(1, 1))
          (relu): Mish()
          (fc2): Conv2d(32, 512, kernel_size=(1, 1), stride=(1, 1))
          (sigmoid): Sigmoid()
        )
      )
    )
    (layer3): Sequential(
      (0): SEResNeXtBottleneck(
        (conv1): Conv2d(512, 512, kernel_size=(1, 1), stride=(1, 1), bias=False)
        (bn1): BatchNorm2d(512, eps=1e-05, momentum=0.1, affine=True, track_running_stats=True)
        (conv2): Conv2d(512, 512, kernel_size=(3, 3), stride=(2, 2), padding=(1, 1), groups=32, bias=False)
        (bn2): BatchNorm2d(512, eps=1e-05, momentum=0.1, affine=True, track_running_stats=True)
        (conv3): Conv2d(512, 1024, kernel_size=(1, 1), stride=(1, 1), bias=False)
        (bn3): BatchNorm2d(1024, eps=1e-05, momentum=0.1, affine=True, track_running_stats=True)
        (relu): Mish()
        (se_module): SEModule(
          (avg_pool): AdaptiveAvgPool2d(output_size=1)
          (fc1): Conv2d(1024, 64, kernel_size=(1, 1), stride=(1, 1))
          (relu): Mish()
          (fc2): Conv2d(64, 1024, kernel_size=(1, 1), stride=(1, 1))
          (sigmoid): Sigmoid()
        )
        (downsample): Sequential(
          (0): Conv2d(512, 1024, kernel_size=(1, 1), stride=(2, 2), bias=False)
          (1): BatchNorm2d(1024, eps=1e-05, momentum=0.1, affine=True, track_running_stats=True)
        )
      )
      (1): SEResNeXtBottleneck(
        (conv1): Conv2d(1024, 512, kernel_size=(1, 1), stride=(1, 1), bias=False)
        (bn1): BatchNorm2d(512, eps=1e-05, momentum=0.1, affine=True, track_running_stats=True)
        (conv2): Conv2d(512, 512, kernel_size=(3, 3), stride=(1, 1), padding=(1, 1), groups=32, bias=False)
        (bn2): BatchNorm2d(512, eps=1e-05, momentum=0.1, affine=True, track_running_stats=True)
        (conv3): Conv2d(512, 1024, kernel_size=(1, 1), stride=(1, 1), bias=False)
        (bn3): BatchNorm2d(1024, eps=1e-05, momentum=0.1, affine=True, track_running_stats=True)
        (relu): Mish()
        (se_module): SEModule(
          (avg_pool): AdaptiveAvgPool2d(output_size=1)
          (fc1): Conv2d(1024, 64, kernel_size=(1, 1), stride=(1, 1))
          (relu): Mish()
          (fc2): Conv2d(64, 1024, kernel_size=(1, 1), stride=(1, 1))
          (sigmoid): Sigmoid()
        )
      )
      (2): SEResNeXtBottleneck(
        (conv1): Conv2d(1024, 512, kernel_size=(1, 1), stride=(1, 1), bias=False)
        (bn1): BatchNorm2d(512, eps=1e-05, momentum=0.1, affine=True, track_running_stats=True)
        (conv2): Conv2d(512, 512, kernel_size=(3, 3), stride=(1, 1), padding=(1, 1), groups=32, bias=False)
        (bn2): BatchNorm2d(512, eps=1e-05, momentum=0.1, affine=True, track_running_stats=True)
        (conv3): Conv2d(512, 1024, kernel_size=(1, 1), stride=(1, 1), bias=False)
        (bn3): BatchNorm2d(1024, eps=1e-05, momentum=0.1, affine=True, track_running_stats=True)
        (relu): Mish()
        (se_module): SEModule(
          (avg_pool): AdaptiveAvgPool2d(output_size=1)
          (fc1): Conv2d(1024, 64, kernel_size=(1, 1), stride=(1, 1))
          (relu): Mish()
          (fc2): Conv2d(64, 1024, kernel_size=(1, 1), stride=(1, 1))
          (sigmoid): Sigmoid()
        )
      )
      (3): SEResNeXtBottleneck(
        (conv1): Conv2d(1024, 512, kernel_size=(1, 1), stride=(1, 1), bias=False)
        (bn1): BatchNorm2d(512, eps=1e-05, momentum=0.1, affine=True, track_running_stats=True)
        (conv2): Conv2d(512, 512, kernel_size=(3, 3), stride=(1, 1), padding=(1, 1), groups=32, bias=False)
        (bn2): BatchNorm2d(512, eps=1e-05, momentum=0.1, affine=True, track_running_stats=True)
        (conv3): Conv2d(512, 1024, kernel_size=(1, 1), stride=(1, 1), bias=False)
        (bn3): BatchNorm2d(1024, eps=1e-05, momentum=0.1, affine=True, track_running_stats=True)
        (relu): Mish()
        (se_module): SEModule(
          (avg_pool): AdaptiveAvgPool2d(output_size=1)
          (fc1): Conv2d(1024, 64, kernel_size=(1, 1), stride=(1, 1))
          (relu): Mish()
          (fc2): Conv2d(64, 1024, kernel_size=(1, 1), stride=(1, 1))
          (sigmoid): Sigmoid()
        )
      )
      (4): SEResNeXtBottleneck(
        (conv1): Conv2d(1024, 512, kernel_size=(1, 1), stride=(1, 1), bias=False)
        (bn1): BatchNorm2d(512, eps=1e-05, momentum=0.1, affine=True, track_running_stats=True)
        (conv2): Conv2d(512, 512, kernel_size=(3, 3), stride=(1, 1), padding=(1, 1), groups=32, bias=False)
        (bn2): BatchNorm2d(512, eps=1e-05, momentum=0.1, affine=True, track_running_stats=True)
        (conv3): Conv2d(512, 1024, kernel_size=(1, 1), stride=(1, 1), bias=False)
        (bn3): BatchNorm2d(1024, eps=1e-05, momentum=0.1, affine=True, track_running_stats=True)
        (relu): Mish()
        (se_module): SEModule(
          (avg_pool): AdaptiveAvgPool2d(output_size=1)
          (fc1): Conv2d(1024, 64, kernel_size=(1, 1), stride=(1, 1))
          (relu): Mish()
          (fc2): Conv2d(64, 1024, kernel_size=(1, 1), stride=(1, 1))
          (sigmoid): Sigmoid()
        )
      )
      (5): SEResNeXtBottleneck(
        (conv1): Conv2d(1024, 512, kernel_size=(1, 1), stride=(1, 1), bias=False)
        (bn1): BatchNorm2d(512, eps=1e-05, momentum=0.1, affine=True, track_running_stats=True)
        (conv2): Conv2d(512, 512, kernel_size=(3, 3), stride=(1, 1), padding=(1, 1), groups=32, bias=False)
        (bn2): BatchNorm2d(512, eps=1e-05, momentum=0.1, affine=True, track_running_stats=True)
        (conv3): Conv2d(512, 1024, kernel_size=(1, 1), stride=(1, 1), bias=False)
        (bn3): BatchNorm2d(1024, eps=1e-05, momentum=0.1, affine=True, track_running_stats=True)
        (relu): Mish()
        (se_module): SEModule(
          (avg_pool): AdaptiveAvgPool2d(output_size=1)
          (fc1): Conv2d(1024, 64, kernel_size=(1, 1), stride=(1, 1))
          (relu): Mish()
          (fc2): Conv2d(64, 1024, kernel_size=(1, 1), stride=(1, 1))
          (sigmoid): Sigmoid()
        )
      )
    )
    (layer4): Sequential(
      (0): SEResNeXtBottleneck(
        (conv1): Conv2d(1024, 1024, kernel_size=(1, 1), stride=(1, 1), bias=False)
        (bn1): BatchNorm2d(1024, eps=1e-05, momentum=0.1, affine=True, track_running_stats=True)
        (conv2): Conv2d(1024, 1024, kernel_size=(3, 3), stride=(2, 2), padding=(1, 1), groups=32, bias=False)
        (bn2): BatchNorm2d(1024, eps=1e-05, momentum=0.1, affine=True, track_running_stats=True)
        (conv3): Conv2d(1024, 2048, kernel_size=(1, 1), stride=(1, 1), bias=False)
        (bn3): BatchNorm2d(2048, eps=1e-05, momentum=0.1, affine=True, track_running_stats=True)
        (relu): Mish()
        (se_module): SEModule(
          (avg_pool): AdaptiveAvgPool2d(output_size=1)
          (fc1): Conv2d(2048, 128, kernel_size=(1, 1), stride=(1, 1))
          (relu): Mish()
          (fc2): Conv2d(128, 2048, kernel_size=(1, 1), stride=(1, 1))
          (sigmoid): Sigmoid()
        )
        (downsample): Sequential(
          (0): Conv2d(1024, 2048, kernel_size=(1, 1), stride=(2, 2), bias=False)
          (1): BatchNorm2d(2048, eps=1e-05, momentum=0.1, affine=True, track_running_stats=True)
        )
      )
      (1): SEResNeXtBottleneck(
        (conv1): Conv2d(2048, 1024, kernel_size=(1, 1), stride=(1, 1), bias=False)
        (bn1): BatchNorm2d(1024, eps=1e-05, momentum=0.1, affine=True, track_running_stats=True)
        (conv2): Conv2d(1024, 1024, kernel_size=(3, 3), stride=(1, 1), padding=(1, 1), groups=32, bias=False)
        (bn2): BatchNorm2d(1024, eps=1e-05, momentum=0.1, affine=True, track_running_stats=True)
        (conv3): Conv2d(1024, 2048, kernel_size=(1, 1), stride=(1, 1), bias=False)
        (bn3): BatchNorm2d(2048, eps=1e-05, momentum=0.1, affine=True, track_running_stats=True)
        (relu): Mish()
        (se_module): SEModule(
          (avg_pool): AdaptiveAvgPool2d(output_size=1)
          (fc1): Conv2d(2048, 128, kernel_size=(1, 1), stride=(1, 1))
          (relu): Mish()
          (fc2): Conv2d(128, 2048, kernel_size=(1, 1), stride=(1, 1))
          (sigmoid): Sigmoid()
        )
      )
      (2): SEResNeXtBottleneck(
        (conv1): Conv2d(2048, 1024, kernel_size=(1, 1), stride=(1, 1), bias=False)
        (bn1): BatchNorm2d(1024, eps=1e-05, momentum=0.1, affine=True, track_running_stats=True)
        (conv2): Conv2d(1024, 1024, kernel_size=(3, 3), stride=(1, 1), padding=(1, 1), groups=32, bias=False)
        (bn2): BatchNorm2d(1024, eps=1e-05, momentum=0.1, affine=True, track_running_stats=True)
        (conv3): Conv2d(1024, 2048, kernel_size=(1, 1), stride=(1, 1), bias=False)
        (bn3): BatchNorm2d(2048, eps=1e-05, momentum=0.1, affine=True, track_running_stats=True)
        (relu): Mish()
        (se_module): SEModule(
          (avg_pool): AdaptiveAvgPool2d(output_size=1)
          (fc1): Conv2d(2048, 128, kernel_size=(1, 1), stride=(1, 1))
          (relu): Mish()
          (fc2): Conv2d(128, 2048, kernel_size=(1, 1), stride=(1, 1))
          (sigmoid): Sigmoid()
        )
      )
    )
    (avg_pool): AvgPool2d(kernel_size=7, stride=1, padding=0)
    (last_linear): Linear(in_features=2048, out_features=1000, bias=True)
  )
  (head_grapheme_root): AdaptiveHead(
    (pool): GeM(p=3.0000, eps=1e-06)
    (fc1): Conv2d(2048, 1024, kernel_size=(2, 2), stride=(1, 1))
    (bn): BatchNorm2d(1024, eps=1e-05, momentum=0.1, affine=True, track_running_stats=True)
    (mish): Mish()
    (l1): Linear(in_features=1024, out_features=168, bias=True)
    (dropout): Dropout2d(p=0.7, inplace=False)
  )
  (head_vowel_diacritic): AdaptiveHead(
    (pool): GeM(p=3.0000, eps=1e-06)
    (fc1): Conv2d(2048, 512, kernel_size=(2, 2), stride=(1, 1))
    (bn): BatchNorm2d(512, eps=1e-05, momentum=0.1, affine=True, track_running_stats=True)
    (mish): Mish()
    (l1): Linear(in_features=512, out_features=11, bias=True)
    (dropout): Dropout2d(p=0.3, inplace=False)
  )
  (head_consonant_diacritic): AdaptiveHead(
    (pool): GeM(p=3.0000, eps=1e-06)
    (fc1): Conv2d(2048, 512, kernel_size=(2, 2), stride=(1, 1))
    (bn): BatchNorm2d(512, eps=1e-05, momentum=0.1, affine=True, track_running_stats=True)
    (mish): Mish()
    (l1): Linear(in_features=512, out_features=7, bias=True)
    (dropout): Dropout2d(p=0.3, inplace=False)
  )
)
02/10/2020 12:20:54 PM ------------------------------------------------------------
02/10/2020 12:20:54 PM Starting training...
02/10/2020 12:20:55 PM Unfreezing model
02/10/2020 12:21:17 PM [1/150] | t_0 | R: 0.060 | [0.008 | 0.084 | 0.140] | A: [1.799% | 17.898% | 55.303%] | L: 3.550 | [5.255 | 2.280 | 1.409]
…
