…
02/09/2020 03:19:22 AM Debug: False
02/09/2020 03:19:22 AM Batch size: 32
02/09/2020 03:19:22 AM LR: 0.0003
02/09/2020 03:19:22 AM Optimizer: <class 'torch.optim.adam.Adam'>
02/09/2020 03:19:22 AM Weights: [0.5 | 0.25 | 0.25]
02/09/2020 03:19:22 AM Activation: None
02/09/2020 03:19:22 AM Mixup: False
02/09/2020 03:19:22 AM Cutmix: False
02/09/2020 03:19:22 AM Train dataset: <loaddata.BengaliAI object at 0x7fd63dfb6cc0>
02/09/2020 03:19:22 AM Validation dataset: <loaddata.BengaliAI object at 0x7fd63dfb6f28>
02/09/2020 03:19:22 AM Continue: False
02/09/2020 03:19:22 AM Model: ClassifierCNN(
  (first): Conv2d(1, 3, kernel_size=(3, 3), stride=(1, 1), padding=(1, 1))
  (model): SENet(
    (layer0): Sequential(
      (conv1): Conv2d(3, 64, kernel_size=(7, 7), stride=(2, 2), padding=(3, 3), bias=False)
      (bn1): BatchNorm2d(64, eps=1e-05, momentum=0.1, affine=True, track_running_stats=True)
      (relu1): ReLU(inplace=True)
      (pool): MaxPool2d(kernel_size=3, stride=2, padding=0, dilation=1, ceil_mode=True)
    )
    (layer1): Sequential(
      (0): SEResNeXtBottleneck(
        (conv1): Conv2d(64, 128, kernel_size=(1, 1), stride=(1, 1), bias=False)
        (bn1): BatchNorm2d(128, eps=1e-05, momentum=0.1, affine=True, track_running_stats=True)
        (conv2): Conv2d(128, 128, kernel_size=(3, 3), stride=(1, 1), padding=(1, 1), groups=32, bias=False)
        (bn2): BatchNorm2d(128, eps=1e-05, momentum=0.1, affine=True, track_running_stats=True)
        (conv3): Conv2d(128, 256, kernel_size=(1, 1), stride=(1, 1), bias=False)
        (bn3): BatchNorm2d(256, eps=1e-05, momentum=0.1, affine=True, track_running_stats=True)
        (relu): ReLU(inplace=True)
        (se_module): SEModule(
          (avg_pool): AdaptiveAvgPool2d(output_size=1)
          (fc1): Conv2d(256, 16, kernel_size=(1, 1), stride=(1, 1))
          (relu): ReLU(inplace=True)
          (fc2): Conv2d(16, 256, kernel_size=(1, 1), stride=(1, 1))
          (sigmoid): Sigmoid()
        )
        (downsample): Sequential(
          (0): Conv2d(64, 256, kernel_size=(1, 1), stride=(1, 1), bias=False)
          (1): BatchNorm2d(256, eps=1e-05, momentum=0.1, affine=True, track_running_stats=True)
        )
      )
      (1): SEResNeXtBottleneck(
        (conv1): Conv2d(256, 128, kernel_size=(1, 1), stride=(1, 1), bias=False)
        (bn1): BatchNorm2d(128, eps=1e-05, momentum=0.1, affine=True, track_running_stats=True)
        (conv2): Conv2d(128, 128, kernel_size=(3, 3), stride=(1, 1), padding=(1, 1), groups=32, bias=False)
        (bn2): BatchNorm2d(128, eps=1e-05, momentum=0.1, affine=True, track_running_stats=True)
        (conv3): Conv2d(128, 256, kernel_size=(1, 1), stride=(1, 1), bias=False)
        (bn3): BatchNorm2d(256, eps=1e-05, momentum=0.1, affine=True, track_running_stats=True)
        (relu): ReLU(inplace=True)
        (se_module): SEModule(
          (avg_pool): AdaptiveAvgPool2d(output_size=1)
          (fc1): Conv2d(256, 16, kernel_size=(1, 1), stride=(1, 1))
          (relu): ReLU(inplace=True)
          (fc2): Conv2d(16, 256, kernel_size=(1, 1), stride=(1, 1))
          (sigmoid): Sigmoid()
        )
      )
      (2): SEResNeXtBottleneck(
        (conv1): Conv2d(256, 128, kernel_size=(1, 1), stride=(1, 1), bias=False)
        (bn1): BatchNorm2d(128, eps=1e-05, momentum=0.1, affine=True, track_running_stats=True)
        (conv2): Conv2d(128, 128, kernel_size=(3, 3), stride=(1, 1), padding=(1, 1), groups=32, bias=False)
        (bn2): BatchNorm2d(128, eps=1e-05, momentum=0.1, affine=True, track_running_stats=True)
        (conv3): Conv2d(128, 256, kernel_size=(1, 1), stride=(1, 1), bias=False)
        (bn3): BatchNorm2d(256, eps=1e-05, momentum=0.1, affine=True, track_running_stats=True)
        (relu): ReLU(inplace=True)
        (se_module): SEModule(
          (avg_pool): AdaptiveAvgPool2d(output_size=1)
          (fc1): Conv2d(256, 16, kernel_size=(1, 1), stride=(1, 1))
          (relu): ReLU(inplace=True)
          (fc2): Conv2d(16, 256, kernel_size=(1, 1), stride=(1, 1))
          (sigmoid): Sigmoid()
        )
      )
    )
    (layer2): Sequential(
      (0): SEResNeXtBottleneck(
        (conv1): Conv2d(256, 256, kernel_size=(1, 1), stride=(1, 1), bias=False)
        (bn1): BatchNorm2d(256, eps=1e-05, momentum=0.1, affine=True, track_running_stats=True)
        (conv2): Conv2d(256, 256, kernel_size=(3, 3), stride=(2, 2), padding=(1, 1), groups=32, bias=False)
        (bn2): BatchNorm2d(256, eps=1e-05, momentum=0.1, affine=True, track_running_stats=True)
        (conv3): Conv2d(256, 512, kernel_size=(1, 1), stride=(1, 1), bias=False)
        (bn3): BatchNorm2d(512, eps=1e-05, momentum=0.1, affine=True, track_running_stats=True)
        (relu): ReLU(inplace=True)
        (se_module): SEModule(
          (avg_pool): AdaptiveAvgPool2d(output_size=1)
          (fc1): Conv2d(512, 32, kernel_size=(1, 1), stride=(1, 1))
          (relu): ReLU(inplace=True)
          (fc2): Conv2d(32, 512, kernel_size=(1, 1), stride=(1, 1))
          (sigmoid): Sigmoid()
        )
        (downsample): Sequential(
          (0): Conv2d(256, 512, kernel_size=(1, 1), stride=(2, 2), bias=False)
          (1): BatchNorm2d(512, eps=1e-05, momentum=0.1, affine=True, track_running_stats=True)
        )
      )
      (1): SEResNeXtBottleneck(
        (conv1): Conv2d(512, 256, kernel_size=(1, 1), stride=(1, 1), bias=False)
        (bn1): BatchNorm2d(256, eps=1e-05, momentum=0.1, affine=True, track_running_stats=True)
        (conv2): Conv2d(256, 256, kernel_size=(3, 3), stride=(1, 1), padding=(1, 1), groups=32, bias=False)
        (bn2): BatchNorm2d(256, eps=1e-05, momentum=0.1, affine=True, track_running_stats=True)
        (conv3): Conv2d(256, 512, kernel_size=(1, 1), stride=(1, 1), bias=False)
        (bn3): BatchNorm2d(512, eps=1e-05, momentum=0.1, affine=True, track_running_stats=True)
        (relu): ReLU(inplace=True)
        (se_module): SEModule(
          (avg_pool): AdaptiveAvgPool2d(output_size=1)
          (fc1): Conv2d(512, 32, kernel_size=(1, 1), stride=(1, 1))
          (relu): ReLU(inplace=True)
          (fc2): Conv2d(32, 512, kernel_size=(1, 1), stride=(1, 1))
          (sigmoid): Sigmoid()
        )
      )
      (2): SEResNeXtBottleneck(
        (conv1): Conv2d(512, 256, kernel_size=(1, 1), stride=(1, 1), bias=False)
        (bn1): BatchNorm2d(256, eps=1e-05, momentum=0.1, affine=True, track_running_stats=True)
        (conv2): Conv2d(256, 256, kernel_size=(3, 3), stride=(1, 1), padding=(1, 1), groups=32, bias=False)
        (bn2): BatchNorm2d(256, eps=1e-05, momentum=0.1, affine=True, track_running_stats=True)
        (conv3): Conv2d(256, 512, kernel_size=(1, 1), stride=(1, 1), bias=False)
        (bn3): BatchNorm2d(512, eps=1e-05, momentum=0.1, affine=True, track_running_stats=True)
        (relu): ReLU(inplace=True)
        (se_module): SEModule(
          (avg_pool): AdaptiveAvgPool2d(output_size=1)
          (fc1): Conv2d(512, 32, kernel_size=(1, 1), stride=(1, 1))
          (relu): ReLU(inplace=True)
          (fc2): Conv2d(32, 512, kernel_size=(1, 1), stride=(1, 1))
          (sigmoid): Sigmoid()
        )
      )
      (3): SEResNeXtBottleneck(
        (conv1): Conv2d(512, 256, kernel_size=(1, 1), stride=(1, 1), bias=False)
        (bn1): BatchNorm2d(256, eps=1e-05, momentum=0.1, affine=True, track_running_stats=True)
        (conv2): Conv2d(256, 256, kernel_size=(3, 3), stride=(1, 1), padding=(1, 1), groups=32, bias=False)
        (bn2): BatchNorm2d(256, eps=1e-05, momentum=0.1, affine=True, track_running_stats=True)
        (conv3): Conv2d(256, 512, kernel_size=(1, 1), stride=(1, 1), bias=False)
        (bn3): BatchNorm2d(512, eps=1e-05, momentum=0.1, affine=True, track_running_stats=True)
        (relu): ReLU(inplace=True)
        (se_module): SEModule(
          (avg_pool): AdaptiveAvgPool2d(output_size=1)
          (fc1): Conv2d(512, 32, kernel_size=(1, 1), stride=(1, 1))
          (relu): ReLU(inplace=True)
          (fc2): Conv2d(32, 512, kernel_size=(1, 1), stride=(1, 1))
          (sigmoid): Sigmoid()
        )
      )
    )
    (layer3): Sequential(
      (0): SEResNeXtBottleneck(
        (conv1): Conv2d(512, 512, kernel_size=(1, 1), stride=(1, 1), bias=False)
        (bn1): BatchNorm2d(512, eps=1e-05, momentum=0.1, affine=True, track_running_stats=True)
        (conv2): Conv2d(512, 512, kernel_size=(3, 3), stride=(2, 2), padding=(1, 1), groups=32, bias=False)
        (bn2): BatchNorm2d(512, eps=1e-05, momentum=0.1, affine=True, track_running_stats=True)
        (conv3): Conv2d(512, 1024, kernel_size=(1, 1), stride=(1, 1), bias=False)
        (bn3): BatchNorm2d(1024, eps=1e-05, momentum=0.1, affine=True, track_running_stats=True)
        (relu): ReLU(inplace=True)
        (se_module): SEModule(
          (avg_pool): AdaptiveAvgPool2d(output_size=1)
          (fc1): Conv2d(1024, 64, kernel_size=(1, 1), stride=(1, 1))
          (relu): ReLU(inplace=True)
          (fc2): Conv2d(64, 1024, kernel_size=(1, 1), stride=(1, 1))
          (sigmoid): Sigmoid()
        )
        (downsample): Sequential(
          (0): Conv2d(512, 1024, kernel_size=(1, 1), stride=(2, 2), bias=False)
          (1): BatchNorm2d(1024, eps=1e-05, momentum=0.1, affine=True, track_running_stats=True)
        )
      )
      (1): SEResNeXtBottleneck(
        (conv1): Conv2d(1024, 512, kernel_size=(1, 1), stride=(1, 1), bias=False)
        (bn1): BatchNorm2d(512, eps=1e-05, momentum=0.1, affine=True, track_running_stats=True)
        (conv2): Conv2d(512, 512, kernel_size=(3, 3), stride=(1, 1), padding=(1, 1), groups=32, bias=False)
        (bn2): BatchNorm2d(512, eps=1e-05, momentum=0.1, affine=True, track_running_stats=True)
        (conv3): Conv2d(512, 1024, kernel_size=(1, 1), stride=(1, 1), bias=False)
        (bn3): BatchNorm2d(1024, eps=1e-05, momentum=0.1, affine=True, track_running_stats=True)
        (relu): ReLU(inplace=True)
        (se_module): SEModule(
          (avg_pool): AdaptiveAvgPool2d(output_size=1)
          (fc1): Conv2d(1024, 64, kernel_size=(1, 1), stride=(1, 1))
          (relu): ReLU(inplace=True)
          (fc2): Conv2d(64, 1024, kernel_size=(1, 1), stride=(1, 1))
          (sigmoid): Sigmoid()
        )
      )
      (2): SEResNeXtBottleneck(
        (conv1): Conv2d(1024, 512, kernel_size=(1, 1), stride=(1, 1), bias=False)
        (bn1): BatchNorm2d(512, eps=1e-05, momentum=0.1, affine=True, track_running_stats=True)
        (conv2): Conv2d(512, 512, kernel_size=(3, 3), stride=(1, 1), padding=(1, 1), groups=32, bias=False)
        (bn2): BatchNorm2d(512, eps=1e-05, momentum=0.1, affine=True, track_running_stats=True)
        (conv3): Conv2d(512, 1024, kernel_size=(1, 1), stride=(1, 1), bias=False)
        (bn3): BatchNorm2d(1024, eps=1e-05, momentum=0.1, affine=True, track_running_stats=True)
        (relu): ReLU(inplace=True)
        (se_module): SEModule(
          (avg_pool): AdaptiveAvgPool2d(output_size=1)
          (fc1): Conv2d(1024, 64, kernel_size=(1, 1), stride=(1, 1))
          (relu): ReLU(inplace=True)
          (fc2): Conv2d(64, 1024, kernel_size=(1, 1), stride=(1, 1))
          (sigmoid): Sigmoid()
        )
      )
      (3): SEResNeXtBottleneck(
        (conv1): Conv2d(1024, 512, kernel_size=(1, 1), stride=(1, 1), bias=False)
        (bn1): BatchNorm2d(512, eps=1e-05, momentum=0.1, affine=True, track_running_stats=True)
        (conv2): Conv2d(512, 512, kernel_size=(3, 3), stride=(1, 1), padding=(1, 1), groups=32, bias=False)
        (bn2): BatchNorm2d(512, eps=1e-05, momentum=0.1, affine=True, track_running_stats=True)
        (conv3): Conv2d(512, 1024, kernel_size=(1, 1), stride=(1, 1), bias=False)
        (bn3): BatchNorm2d(1024, eps=1e-05, momentum=0.1, affine=True, track_running_stats=True)
        (relu): ReLU(inplace=True)
        (se_module): SEModule(
          (avg_pool): AdaptiveAvgPool2d(output_size=1)
          (fc1): Conv2d(1024, 64, kernel_size=(1, 1), stride=(1, 1))
          (relu): ReLU(inplace=True)
          (fc2): Conv2d(64, 1024, kernel_size=(1, 1), stride=(1, 1))
          (sigmoid): Sigmoid()
        )
      )
      (4): SEResNeXtBottleneck(
        (conv1): Conv2d(1024, 512, kernel_size=(1, 1), stride=(1, 1), bias=False)
        (bn1): BatchNorm2d(512, eps=1e-05, momentum=0.1, affine=True, track_running_stats=True)
        (conv2): Conv2d(512, 512, kernel_size=(3, 3), stride=(1, 1), padding=(1, 1), groups=32, bias=False)
        (bn2): BatchNorm2d(512, eps=1e-05, momentum=0.1, affine=True, track_running_stats=True)
        (conv3): Conv2d(512, 1024, kernel_size=(1, 1), stride=(1, 1), bias=False)
        (bn3): BatchNorm2d(1024, eps=1e-05, momentum=0.1, affine=True, track_running_stats=True)
        (relu): ReLU(inplace=True)
        (se_module): SEModule(
          (avg_pool): AdaptiveAvgPool2d(output_size=1)
          (fc1): Conv2d(1024, 64, kernel_size=(1, 1), stride=(1, 1))
          (relu): ReLU(inplace=True)
          (fc2): Conv2d(64, 1024, kernel_size=(1, 1), stride=(1, 1))
          (sigmoid): Sigmoid()
        )
      )
      (5): SEResNeXtBottleneck(
        (conv1): Conv2d(1024, 512, kernel_size=(1, 1), stride=(1, 1), bias=False)
        (bn1): BatchNorm2d(512, eps=1e-05, momentum=0.1, affine=True, track_running_stats=True)
        (conv2): Conv2d(512, 512, kernel_size=(3, 3), stride=(1, 1), padding=(1, 1), groups=32, bias=False)
        (bn2): BatchNorm2d(512, eps=1e-05, momentum=0.1, affine=True, track_running_stats=True)
        (conv3): Conv2d(512, 1024, kernel_size=(1, 1), stride=(1, 1), bias=False)
        (bn3): BatchNorm2d(1024, eps=1e-05, momentum=0.1, affine=True, track_running_stats=True)
        (relu): ReLU(inplace=True)
        (se_module): SEModule(
          (avg_pool): AdaptiveAvgPool2d(output_size=1)
          (fc1): Conv2d(1024, 64, kernel_size=(1, 1), stride=(1, 1))
          (relu): ReLU(inplace=True)
          (fc2): Conv2d(64, 1024, kernel_size=(1, 1), stride=(1, 1))
          (sigmoid): Sigmoid()
        )
      )
    )
    (layer4): Sequential(
      (0): SEResNeXtBottleneck(
        (conv1): Conv2d(1024, 1024, kernel_size=(1, 1), stride=(1, 1), bias=False)
        (bn1): BatchNorm2d(1024, eps=1e-05, momentum=0.1, affine=True, track_running_stats=True)
        (conv2): Conv2d(1024, 1024, kernel_size=(3, 3), stride=(2, 2), padding=(1, 1), groups=32, bias=False)
        (bn2): BatchNorm2d(1024, eps=1e-05, momentum=0.1, affine=True, track_running_stats=True)
        (conv3): Conv2d(1024, 2048, kernel_size=(1, 1), stride=(1, 1), bias=False)
        (bn3): BatchNorm2d(2048, eps=1e-05, momentum=0.1, affine=True, track_running_stats=True)
        (relu): ReLU(inplace=True)
        (se_module): SEModule(
          (avg_pool): AdaptiveAvgPool2d(output_size=1)
          (fc1): Conv2d(2048, 128, kernel_size=(1, 1), stride=(1, 1))
          (relu): ReLU(inplace=True)
          (fc2): Conv2d(128, 2048, kernel_size=(1, 1), stride=(1, 1))
          (sigmoid): Sigmoid()
        )
        (downsample): Sequential(
          (0): Conv2d(1024, 2048, kernel_size=(1, 1), stride=(2, 2), bias=False)
          (1): BatchNorm2d(2048, eps=1e-05, momentum=0.1, affine=True, track_running_stats=True)
        )
      )
      (1): SEResNeXtBottleneck(
        (conv1): Conv2d(2048, 1024, kernel_size=(1, 1), stride=(1, 1), bias=False)
        (bn1): BatchNorm2d(1024, eps=1e-05, momentum=0.1, affine=True, track_running_stats=True)
        (conv2): Conv2d(1024, 1024, kernel_size=(3, 3), stride=(1, 1), padding=(1, 1), groups=32, bias=False)
        (bn2): BatchNorm2d(1024, eps=1e-05, momentum=0.1, affine=True, track_running_stats=True)
        (conv3): Conv2d(1024, 2048, kernel_size=(1, 1), stride=(1, 1), bias=False)
        (bn3): BatchNorm2d(2048, eps=1e-05, momentum=0.1, affine=True, track_running_stats=True)
        (relu): ReLU(inplace=True)
        (se_module): SEModule(
          (avg_pool): AdaptiveAvgPool2d(output_size=1)
          (fc1): Conv2d(2048, 128, kernel_size=(1, 1), stride=(1, 1))
          (relu): ReLU(inplace=True)
          (fc2): Conv2d(128, 2048, kernel_size=(1, 1), stride=(1, 1))
          (sigmoid): Sigmoid()
        )
      )
      (2): SEResNeXtBottleneck(
        (conv1): Conv2d(2048, 1024, kernel_size=(1, 1), stride=(1, 1), bias=False)
        (bn1): BatchNorm2d(1024, eps=1e-05, momentum=0.1, affine=True, track_running_stats=True)
        (conv2): Conv2d(1024, 1024, kernel_size=(3, 3), stride=(1, 1), padding=(1, 1), groups=32, bias=False)
        (bn2): BatchNorm2d(1024, eps=1e-05, momentum=0.1, affine=True, track_running_stats=True)
        (conv3): Conv2d(1024, 2048, kernel_size=(1, 1), stride=(1, 1), bias=False)
        (bn3): BatchNorm2d(2048, eps=1e-05, momentum=0.1, affine=True, track_running_stats=True)
        (relu): ReLU(inplace=True)
        (se_module): SEModule(
          (avg_pool): AdaptiveAvgPool2d(output_size=1)
          (fc1): Conv2d(2048, 128, kernel_size=(1, 1), stride=(1, 1))
          (relu): ReLU(inplace=True)
          (fc2): Conv2d(128, 2048, kernel_size=(1, 1), stride=(1, 1))
          (sigmoid): Sigmoid()
        )
      )
    )
    (avg_pool): AvgPool2d(kernel_size=7, stride=1, padding=0)
    (last_linear): Linear(in_features=2048, out_features=1000, bias=True)
  )
  (head_grapheme_root): AdaptiveHead(
    (pool): GeM(p=3.0000, eps=1e-06)
    (l1): Linear(in_features=2048, out_features=168, bias=True)
  )
  (head_vowel_diacritic): AdaptiveHead(
    (pool): GeM(p=3.0000, eps=1e-06)
    (l1): Linear(in_features=2048, out_features=11, bias=True)
  )
  (head_consonant_diacritic): AdaptiveHead(
    (pool): GeM(p=3.0000, eps=1e-06)
    (l1): Linear(in_features=2048, out_features=7, bias=True)
  )
)
02/09/2020 03:19:22 AM ------------------------------------------------------------
02/09/2020 03:19:22 AM Starting training...
02/09/2020 03:19:40 AM [1/50] | t_0 | R: 0.074 | [0.004 | 0.144 | 0.144] | A: [2.225% | 26.894% | 61.127%] | L: 3.464 | [5.243 | 2.095 | 1.277]
02/09/2020 03:19:41 AM [1/50] | v_0 | R: 0.091 | [0.008 | 0.220 | 0.128] | A: [3.493% | 36.130% | 62.383%] | L: 3.338 | [5.088 | 1.929 | 1.248]
…
